…
device_id: 0
net: "HvsVNetwork1.pxt"
I0615 10:07:39.411350 53624 solver.cpp:91] Creating training net from net file: HvsVNetwork1.pxt
I0615 10:07:39.411350 53624 net.cpp:313] The NetState phase (0) differed from the phase (1) specified by a rule in layer data
I0615 10:07:39.411350 53624 net.cpp:49] Initializing net from parameters: 
name: "HvsVNN"
state {
  phase: TRAIN
}
layer {
  name: "data"
  type: "Data"
  top: "data"
  top: "label"
  include {
    phase: TRAIN
  }
  data_param {
    source: "HvsVLevelDB"
    batch_size: 64
    backend: LEVELDB
  }
}
layer {
  name: "flat"
  type: "Flatten"
  bottom: "data"
  top: "flat"
}
layer {
  name: "ip1"
  type: "InnerProduct"
  bottom: "flat"
  top: "ip1"
  inner_product_param {
    num_output: 2
  }
}
layer {
  name: "accuracy"
  type: "Accuracy"
  bottom: "ip1"
  bottom: "label"
  top: "accuracy"
}
layer {
  name: "loss"
  type: "SoftmaxWithLoss"
  bottom: "ip1"
  bottom: "label"
  top: "loss"
}
I0615 10:07:39.411350 53624 layer_factory.hpp:77] Creating layer data
I0615 10:07:39.411350 53624 common.cpp:39] System entropy source not available, using fallback algorithm to generate seed instead.
I0615 10:07:39.411350 53624 net.cpp:91] Creating Layer data
I0615 10:07:39.411350 53624 net.cpp:399] data -> data
I0615 10:07:39.411350 53624 net.cpp:399] data -> label
I0615 10:07:39.411350 51516 common.cpp:39] System entropy source not available, using fallback algorithm to generate seed instead.
I0615 10:07:39.426950 51516 db_leveldb.cpp:18] Opened leveldb HvsVLevelDB
I0615 10:07:39.458150 53624 data_layer.cpp:41] output data size: 64,1,32,32
I0615 10:07:39.458150 53624 net.cpp:141] Setting up data
I0615 10:07:39.458150 53624 net.cpp:148] Top shape: 64 1 32 32 (65536)
I0615 10:07:39.458150 53624 net.cpp:148] Top shape: 64 (64)
I0615 10:07:39.458150 53624 net.cpp:156] Memory required for data: 262400
I0615 10:07:39.458150 53624 layer_factory.hpp:77] Creating layer label_data_1_split
I0615 10:07:39.458150 53624 net.cpp:91] Creating Layer label_data_1_split
I0615 10:07:39.458150 53624 net.cpp:425] label_data_1_split <- label
I0615 10:07:39.458150 53624 net.cpp:399] label_data_1_split -> label_data_1_split_0
I0615 10:07:39.458150 53624 net.cpp:399] label_data_1_split -> label_data_1_split_1
I0615 10:07:39.458150 53624 net.cpp:141] Setting up label_data_1_split
I0615 10:07:39.458150 53624 net.cpp:148] Top shape: 64 (64)
I0615 10:07:39.458150 53624 net.cpp:148] Top shape: 64 (64)
I0615 10:07:39.458150 53624 net.cpp:156] Memory required for data: 262912
I0615 10:07:39.458150 53624 layer_factory.hpp:77] Creating layer flat
I0615 10:07:39.458150 53624 net.cpp:91] Creating Layer flat
I0615 10:07:39.458150 53624 net.cpp:425] flat <- data
I0615 10:07:39.458150 53624 net.cpp:399] flat -> flat
I0615 10:07:39.458150 53624 net.cpp:141] Setting up flat
I0615 10:07:39.458150 53624 net.cpp:148] Top shape: 64 1024 (65536)
I0615 10:07:39.458150 53624 net.cpp:156] Memory required for data: 525056
I0615 10:07:39.458150 53624 layer_factory.hpp:77] Creating layer ip1
I0615 10:07:39.458150 53624 net.cpp:91] Creating Layer ip1
I0615 10:07:39.458150 53624 net.cpp:425] ip1 <- flat
I0615 10:07:39.458150 53624 net.cpp:399] ip1 -> ip1
I0615 10:07:39.458150 53624 net.cpp:141] Setting up ip1
I0615 10:07:39.458150 53624 net.cpp:148] Top shape: 64 2 (128)
I0615 10:07:39.458150 53624 net.cpp:156] Memory required for data: 525568
I0615 10:07:39.458150 53624 layer_factory.hpp:77] Creating layer ip1_ip1_0_split
I0615 10:07:39.458150 53624 net.cpp:91] Creating Layer ip1_ip1_0_split
I0615 10:07:39.458150 53624 net.cpp:425] ip1_ip1_0_split <- ip1
I0615 10:07:39.458150 53624 net.cpp:399] ip1_ip1_0_split -> ip1_ip1_0_split_0
I0615 10:07:39.458150 53624 net.cpp:399] ip1_ip1_0_split -> ip1_ip1_0_split_1
I0615 10:07:39.458150 53624 net.cpp:141] Setting up ip1_ip1_0_split
I0615 10:07:39.458150 53624 net.cpp:148] Top shape: 64 2 (128)
I0615 10:07:39.458150 53624 net.cpp:148] Top shape: 64 2 (128)
I0615 10:07:39.458150 53624 net.cpp:156] Memory required for data: 526592
I0615 10:07:39.458150 53624 layer_factory.hpp:77] Creating layer accuracy
I0615 10:07:39.458150 53624 net.cpp:91] Creating Layer accuracy
I0615 10:07:39.458150 53624 net.cpp:425] accuracy <- ip1_ip1_0_split_0
I0615 10:07:39.458150 53624 net.cpp:425] accuracy <- label_data_1_split_0
I0615 10:07:39.458150 53624 net.cpp:399] accuracy -> accuracy
…
