…
I0527 14:59:39.349742 34868 net.cpp:313] The NetState phase (0) differed from the phase (1) specified by a rule in layer accuracy
I0527 14:59:39.349742 34868 net.cpp:313] The NetState phase (0) differed from the phase (1) specified by a rule in layer confusion_matrix
I0527 14:59:39.349742 34868 net.cpp:49] Initializing net from parameters: 
name: "MyTestMRNN"
state {
  phase: TRAIN
}
layer {
  name: "data"
  type: "Data"
  top: "data"
  top: "label"
  include {
    phase: TRAIN
  }
  transform_param {
    mean_file: "EqualAugmentedMeanImage.bin"
  }
  data_param {
    source: "EqualAugmentedTrainLevelDB"
    batch_size: 64
    backend: LEVELDB
  }
}
layer {
  name: "flat"
  type: "Flatten"
  bottom: "data"
  top: "flat"
}
layer {
  name: "ip1"
  type: "InnerProduct"
  bottom: "flat"
  top: "ip1"
  inner_product_param {
    num_output: 8
  }
}
layer {
  name: "loss"
  type: "SoftmaxWithLoss"
  bottom: "ip1"
  bottom: "label"
  top: "loss"
}
I0527 14:59:39.349742 34868 layer_factory.hpp:77] Creating layer data
I0527 14:59:39.349742 34868 common.cpp:39] System entropy source not available, using fallback algorithm to generate seed instead.
I0527 14:59:39.349742 34868 net.cpp:91] Creating Layer data
I0527 14:59:39.349742 34868 net.cpp:399] data -> data
I0527 14:59:39.349742 34868 net.cpp:399] data -> label
I0527 14:59:39.349742 34868 data_transformer.cpp:25] Loading mean file from: EqualAugmentedMeanImage.bin
I0527 14:59:39.352742 34956 common.cpp:39] System entropy source not available, using fallback algorithm to generate seed instead.
I0527 14:59:39.365744 34956 db_leveldb.cpp:18] Opened leveldb EqualAugmentedTrainLevelDB
I0527 14:59:39.380745 34868 data_layer.cpp:41] output data size: 64,1,32,32
I0527 14:59:39.382745 34868 net.cpp:141] Setting up data
I0527 14:59:39.382745 34868 net.cpp:148] Top shape: 64 1 32 32 (65536)
I0527 14:59:39.382745 34868 net.cpp:148] Top shape: 64 (64)
I0527 14:59:39.382745 34868 net.cpp:156] Memory required for data: 262400
I0527 14:59:39.382745 34868 layer_factory.hpp:77] Creating layer flat
I0527 14:59:39.382745 34868 net.cpp:91] Creating Layer flat
I0527 14:59:39.382745 34868 net.cpp:425] flat <- data
I0527 14:59:39.382745 34868 net.cpp:399] flat -> flat
I0527 14:59:39.383745 34868 net.cpp:141] Setting up flat
I0527 14:59:39.383745 34868 net.cpp:148] Top shape: 64 1024 (65536)
I0527 14:59:39.383745 34868 net.cpp:156] Memory required for data: 524544
I0527 14:59:39.383745 34868 layer_factory.hpp:77] Creating layer ip1
I0527 14:59:39.383745 34868 net.cpp:91] Creating Layer ip1
I0527 14:59:39.383745 34868 net.cpp:425] ip1 <- flat
I0527 14:59:39.383745 34868 net.cpp:399] ip1 -> ip1
I0527 14:59:39.383745 34868 net.cpp:141] Setting up ip1
I0527 14:59:39.383745 34868 net.cpp:148] Top shape: 64 8 (512)
I0527 14:59:39.383745 34868 net.cpp:156] Memory required for data: 526592
I0527 14:59:39.383745 34868 layer_factory.hpp:77] Creating layer loss
I0527 14:59:39.383745 34868 net.cpp:91] Creating Layer loss
I0527 14:59:39.383745 34868 net.cpp:425] loss <- ip1
I0527 14:59:39.383745 34868 net.cpp:425] loss <- label
I0527 14:59:39.383745 34868 net.cpp:399] loss -> loss
I0527 14:59:39.383745 34868 layer_factory.hpp:77] Creating layer loss
…
I0527 14:59:39.384747 34868 solver.cpp:181] Creating test net (#0) specified by net file: Network1.pxt
I0527 14:59:39.384747 34868 net.cpp:313] The NetState phase (1) differed from the phase (0) specified by a rule in layer data
I0527 14:59:39.384747 34868 net.cpp:49] Initializing net from parameters: 
name: "MyTestMRNN"
state {
  phase: TEST
}
layer {
  name: "data"
  type: "Data"
  top: "data"
  top: "label"
  include {
    phase: TEST
  }
  transform_param {
    mean_file: "EqualAugmentedMeanImage.bin"
  }
  data_param {
    source: "AugmentedOriginalLevelDB"
    batch_size: 90000
    backend: LEVELDB
  }
}
layer {
  name: "flat"
  type: "Flatten"
  bottom: "data"
  top: "flat"
}
layer {
  name: "ip1"
  type: "InnerProduct"
  bottom: "flat"
  top: "ip1"
  inner_product_param {
    num_output: 8
  }
}
layer {
  name: "accuracy"
  type: "Accuracy"
  bottom: "ip1"
  bottom: "label"
  top: "accuracy"
  include {
    phase: TEST
  }
}
layer {
  name: "confusion_matrix"
  type: "ConfusionMatrix"
  bottom: "ip1"
  bottom: "label"
  top: "confusion_matrix"
  include {
    phase: TEST
  }
}
layer {
  name: "loss"
  type: "SoftmaxWithLoss"
  bottom: "ip1"
  bottom: "label"
  top: "loss"
}
I0527 14:59:39.384747 34868 layer_factory.hpp:77] Creating layer data
I0527 14:59:39.385746 34960 common.cpp:39] System entropy source not available, using fallback algorithm to generate seed instead.
I0527 14:59:39.423749 34868 net.cpp:91] Creating Layer data
I0527 14:59:39.423749 34868 net.cpp:399] data -> data
I0527 14:59:39.423749 34868 net.cpp:399] data -> label
I0527 14:59:39.423749 34868 data_transformer.cpp:25] Loading mean file from: EqualAugmentedMeanImage.bin
I0527 14:59:39.426750 34964 common.cpp:39] System entropy source not available, using fallback algorithm to generate seed instead.
I0527 14:59:39.441751 34964 db_leveldb.cpp:18] Opened leveldb AugmentedOriginalLevelDB
I0527 14:59:39.443752 34868 data_layer.cpp:41] output data size: 90000,1,32,32
I0527 14:59:40.206828 34868 net.cpp:141] Setting up data
I0527 14:59:40.206828 34868 net.cpp:148] Top shape: 90000 1 32 32 (92160000)
I0527 14:59:40.206828 34868 net.cpp:148] Top shape: 90000 (90000)
I0527 14:59:40.206828 34868 net.cpp:156] Memory required for data: 369000000
I0527 14:59:40.206828 34868 layer_factory.hpp:77] Creating layer label_data_1_split
I0527 14:59:40.206828 34868 net.cpp:91] Creating Layer label_data_1_split
I0527 14:59:40.206828 34868 net.cpp:425] label_data_1_split <- label
I0527 14:59:40.206828 34868 net.cpp:399] label_data_1_split -> label_data_1_split_0
I0527 14:59:40.206828 34868 net.cpp:399] label_data_1_split -> label_data_1_split_1
I0527 14:59:40.206828 34868 net.cpp:399] label_data_1_split -> label_data_1_split_2
I0527 14:59:40.207828 34868 net.cpp:141] Setting up label_data_1_split
I0527 14:59:40.207828 34868 net.cpp:148] Top shape: 90000 (90000)
I0527 14:59:40.207828 34868 net.cpp:148] Top shape: 90000 (90000)
I0527 14:59:40.207828 34868 net.cpp:148] Top shape: 90000 (90000)
I0527 14:59:40.207828 34868 net.cpp:156] Memory required for data: 370080000
I0527 14:59:40.207828 34868 layer_factory.hpp:77] Creating layer flat
I0527 14:59:40.207828 34868 net.cpp:91] Creating Layer flat
I0527 14:59:40.207828 34868 net.cpp:425] flat <- data
I0527 14:59:40.207828 34868 net.cpp:399] flat -> flat
I0527 14:59:40.207828 34868 net.cpp:141] Setting up flat
I0527 14:59:40.207828 34868 net.cpp:148] Top shape: 90000 1024 (92160000)
I0527 14:59:40.207828 34868 net.cpp:156] Memory required for data: 738720000
I0527 14:59:40.207828 34868 layer_factory.hpp:77] Creating layer ip1
I0527 14:59:40.207828 34868 net.cpp:91] Creating Layer ip1
I0527 14:59:40.207828 34868 net.cpp:425] ip1 <- flat
I0527 14:59:40.207828 34868 net.cpp:399] ip1 -> ip1
I0527 14:59:40.207828 34868 net.cpp:141] Setting up ip1
I0527 14:59:40.207828 34868 net.cpp:148] Top shape: 90000 8 (720000)
I0527 14:59:40.207828 34868 net.cpp:156] Memory required for data: 741600000
I0527 14:59:40.207828 34868 layer_factory.hpp:77] Creating layer ip1_ip1_0_split
I0527 14:59:40.207828 34868 net.cpp:91] Creating Layer ip1_ip1_0_split
I0527 14:59:40.207828 34868 net.cpp:425] ip1_ip1_0_split <- ip1
I0527 14:59:40.207828 34868 net.cpp:399] ip1_ip1_0_split -> ip1_ip1_0_split_0
I0527 14:59:40.207828 34868 net.cpp:399] ip1_ip1_0_split -> ip1_ip1_0_split_1
I0527 14:59:40.207828 34868 net.cpp:399] ip1_ip1_0_split -> ip1_ip1_0_split_2
I0527 14:59:40.207828 34868 net.cpp:141] Setting up ip1_ip1_0_split
I0527 14:59:40.207828 34868 net.cpp:148] Top shape: 90000 8 (720000)
I0527 14:59:40.207828 34868 net.cpp:148] Top shape: 90000 8 (720000)
I0527 14:59:40.207828 34868 net.cpp:148] Top shape: 90000 8 (720000)
I0527 14:59:40.207828 34868 net.cpp:156] Memory required for data: 750240000
I0527 14:59:40.207828 34868 layer_factory.hpp:77] Creating layer accuracy
I0527 14:59:40.207828 34868 net.cpp:91] Creating Layer accuracy
I0527 14:59:40.207828 34868 net.cpp:425] accuracy <- ip1_ip1_0_split_0
I0527 14:59:40.207828 34868 net.cpp:425] accuracy <- label_data_1_split_0
I0527 14:59:40.207828 34868 net.cpp:399] accuracy -> accuracy
I0527 14:59:40.207828 34868 net.cpp:141] Setting up accuracy
I0527 14:59:40.207828 34868 net.cpp:148] Top shape: (1)
I0527 14:59:40.207828 34868 net.cpp:156] Memory required for data: 750240004
I0527 14:59:40.207828 34868 layer_factory.hpp:77] Creating layer confusion_matrix
I0527 14:59:40.207828 34868 net.cpp:91] Creating Layer confusion_matrix
I0527 14:59:40.207828 34868 net.cpp:425] confusion_matrix <- ip1_ip1_0_split_1
I0527 14:59:40.207828 34868 net.cpp:425] confusion_matrix <- label_data_1_split_1
I0527 14:59:40.207828 34868 net.cpp:399] confusion_matrix -> confusion_matrix
I0527 14:59:40.207828 34868 net.cpp:141] Setting up confusion_matrix
I0527 14:59:40.208828 34868 net.cpp:148] Top shape: 8 8 (64)
I0527 14:59:40.208828 34868 net.cpp:156] Memory required for data: 750240260
I0527 14:59:40.208828 34868 layer_factory.hpp:77] Creating layer loss
I0527 14:59:40.208828 34868 net.cpp:91] Creating Layer loss
I0527 14:59:40.208828 34868 net.cpp:425] loss <- ip1_ip1_0_split_2
I0527 14:59:40.208828 34868 net.cpp:425] loss <- label_data_1_split_2
I0527 14:59:40.208828 34868 net.cpp:399] loss -> loss
…
